…
          "base_uri": "https://localhost:8080/"
        },
        "id": "QfsPgyR5eleC",
        "outputId": "6ce9cfe4-a739-4190-b1b0-5e0371e33a7f"
      },
      "execution_count": null,
      "outputs": [
        {
          "output_type": "stream",
          "name": "stdout",
          "text": [
            "Model: \"sequential\"\n",
            "_________________________________________________________________\n",
            " Layer (type)                Output Shape              Param #   \n",
            "=================================================================\n",
            " conv2d (Conv2D)             (None, 28, 28, 32)        832       \n",
            "                                                                 \n",
            " max_pooling2d (MaxPooling2D  (None, 14, 14, 32)       0         \n",
            " )                                                               \n",
            "                                                                 \n",
            " conv2d_1 (Conv2D)           (None, 14, 14, 64)        8256      \n",
            "                                                                 \n",
            " max_pooling2d_1 (MaxPooling  (None, 7, 7, 64)         0         \n",
            " 2D)                                                             \n",
            "                                                                 \n",
            " dropout (Dropout)           (None, 7, 7, 64)          0         \n",
            "                                                                 \n",
            " flatten (Flatten)           (None, 3136)              0         \n",
            "                                                                 \n",
            " dense (Dense)               (None, 1000)              3137000   \n",
            "                                                                 \n",
            " dropout_1 (Dropout)         (None, 1000)              0         \n",
            "                                                                 \n",
            " dense_1 (Dense)             (None, 10)                10010     \n",
            "                                                                 \n",
            "=================================================================\n",
            "Total params: 3,156,098\n",
            "Trainable params: 3,156,098\n",
            "Non-trainable params: 0\n",
            "_________________________________________________________________\n"
          ]
        }
…
